…
 OrderedDict(), '_forward_pre_hooks': OrderedDict(), '_forward_pre_hooks_with_kwargs': OrderedDict(), '_state_dict_hooks': OrderedDict([(2, <function state_dict_hook at 0x7f3c28cc2430>)]), '_state_dict_pre_hooks': OrderedDict(), '_load_state_dict_pre_hooks': OrderedDict([(3, <torch.nn.modules.module._WrappedHook object at 0x7f3a9b574340>)]), '_load_state_dict_post_hooks': OrderedDict(), '_modules': OrderedDict([('loss', RMSE()), ('logging_metrics', ModuleList(
  (0): SMAPE()
  (1): MAE()
  (2): RMSE()
  (3): MAPE()
)), ('input_embeddings', MultiEmbedding(
  (embeddings): ModuleDict(
    (month): Embedding(9, 5)
    (gstage): Embedding(2, 1)
  )
)), ('prescalers', ModuleDict(
  (encoder_length): Linear(in_features=1, out_features=8, bias=True)
  (rice_yield_center): Linear(in_features=1, out_features=8, bias=True)
  (rice_yield_scale): Linear(in_features=1, out_features=8, bias=True)
  (avg_rice_yield): Linear(in_features=1, out_features=8, bias=True)
  (actuals): Linear(in_features=1, out_features=8, bias=True)
  (relative_time_idx): Linear(in_features=1, out_features=8, bias=True)
)), ('static_variable_selection', VariableSelectionNetwork(
  (flattened_grn): GatedResidualNetwork(
    (resample_norm): ResampleNorm(
      (resample): TimeDistributedInterpolation()
      (gate): Sigmoid()
      (norm): LayerNorm((3,), eps=1e-05, elementwise_affine=True)
    )
    (fc1): Linear(in_features=24, out_features=3, bias=True)
    (elu): ELU(alpha=1.0)
    (fc2): Linear(in_features=3, out_features=3, bias=True)
    (gate_norm): GateAddNorm(
      (glu): GatedLinearUnit(
        (dropout): Dropout(p=0.3, inplace=False)
        (fc): Linear(in_features=3, out_features=6, bias=True)
      )
      (add_norm): AddNorm(
        (norm): LayerNorm((3,), eps=1e-05, elementwise_affine=True)
      )
    )
  )
  (single_variable_grns): ModuleDict(
    (encoder_length): GatedResidualNetwork(
      (resample_norm): ResampleNorm(
        (resample): TimeDistributedInterpolation()
        (gate): Sigmoid()
        (norm): LayerNorm((16,), eps=1e-05, elementwise_affine=True)
      )
      (fc1): Linear(in_features=8, out_features=8, bias=True)
      (elu): ELU(alpha=1.0)
      (fc2): Linear(in_features=8, out_features=8, bias=True)
      (gate_norm): GateAddNorm(
        (glu): GatedLinearUnit(
          (dropout): Dropout(p=0.3, inplace=False)
          (fc): Linear(in_features=8, out_features=32, bias=True)
        )
        (add_norm): AddNorm(
          (norm): LayerNorm((16,), eps=1e-05, elementwise_affine=True)
        )
      )
    )
    (rice_yield_center): GatedResidualNetwork(
      (resample_norm): ResampleNorm(
        (resample): TimeDistributedInterpolation()
        (gate): Sigmoid()
        (norm): LayerNorm((16,), eps=1e-05, elementwise_affine=True)
      )
      (fc1): Linear(in_features=8, out_features=8, bias=True)
      (elu): ELU(alpha=1.0)
      (fc2): Linear(in_features=8, out_features=8, bias=True)
      (gate_norm): GateAddNorm(
        (glu): GatedLinearUnit(
          (dropout): Dropout(p=0.3, inplace=False)
          (fc): Linear(in_features=8, out_features=32, bias=True)
        )
        (add_norm): AddNorm(
          (norm): LayerNorm((16,), eps=1e-05, elementwise_affine=True)
        )
      )
    )
    (rice_yield_scale): GatedResidualNetwork(
      (resample_norm): ResampleNorm(
        (resample): TimeDistributedInterpolation()
        (gate): Sigmoid()
        (norm): LayerNorm((16,), eps=1e-05, elementwise_affine=True)
      )
      (fc1): Linear(in_features=8, out_features=8, bias=True)
      (elu): ELU(alpha=1.0)
      (fc2): Linear(in_features=8, out_features=8, bias=True)
      (gate_norm): GateAddNorm(
        (glu): GatedLinearUnit(
          (dropout): Dropout(p=0.3, inplace=False)
          (fc): Linear(in_features=8, out_features=32, bias=True)
        )
        (add_norm): AddNorm(
          (norm): LayerNorm((16,), eps=1e-05, elementwise_affine=True)
        )
      )
    )
  )
  (prescalers): ModuleDict(
    (encoder_length): Linear(in_features=1, out_features=8, bias=True)
    (rice_yield_center): Linear(in_features=1, out_features=8, bias=True)
    (rice_yield_scale): Linear(in_features=1, out_features=8, bias=True)
  )
  (softmax): Softmax(dim=-1)
)), ('encoder_variable_selection', VariableSelectionNetwork(
  (flattened_grn): GatedResidualNetwork(
    (resample_norm): ResampleNorm(
      (resample): TimeDistributedInterpolation()
      (gate): Sigmoid()
      (norm): LayerNorm((5,), eps=1e-05, elementwise_affine=True)
    )
    (fc1): Linear(in_features=30, out_features=5, bias=True)
    (elu): ELU(alpha=1.0)
    (context): Linear(in_features=16, out_features=5, bias=False)
    (fc2): Linear(in_features=5, out_features=5, bias=True)
    (gate_norm): GateAddNorm(
      (glu): GatedLinearUnit(
        (dropout): Dropout(p=0.3, inplace=False)
        (fc): Linear(in_features=5, out_features=10, bias=True)
      )
      (add_norm): AddNorm(
        (norm): LayerNorm((5,), eps=1e-05, elementwise_affine=True)
      )
    )
  )
  (single_variable_grns): ModuleDict(
    (month): ResampleNorm(
      (resample): TimeDistributedInterpolation()
      (gate): Sigmoid()
      (norm): LayerNorm((16,), eps=1e-05, elementwise_affine=True)
    )
    (gstage): ResampleNorm(
      (resample): TimeDistributedInterpolation()
      (gate): Sigmoid()
      (norm): LayerNorm((16,), eps=1e-05, elementwise_affine=True)
    )
    (avg_rice_yield): GatedResidualNetwork(
      (resample_norm): ResampleNorm(
        (resample): TimeDistributedInterpolation()
        (gate): Sigmoid()
        (norm): LayerNorm((16,), eps=1e-05, elementwise_affine=True)
      )
      (fc1): Linear(in_features=8, out_features=8, bias=True)
      (elu): ELU(alpha=1.0)
      (fc2): Linear(in_features=8, out_features=8, bias=True)
      (gate_norm): GateAddNorm(
        (glu): GatedLinearUnit(
          (dropout): Dropout(p=0.3, inplace=False)
          (fc): Linear(in_features=8, out_features=32, bias=True)
        )
        (add_norm): AddNorm(
          (norm): LayerNorm((16,), eps=1e-05, elementwise_affine=True)
        )
      )
    )
    (actuals): GatedResidualNetwork(
      (resample_norm): ResampleNorm(
        (resample): TimeDistributedInterpolation()
        (gate): Sigmoid()
        (norm): LayerNorm((16,), eps=1e-05, elementwise_affine=True)
      )
      (fc1): Linear(in_features=8, out_features=8, bias=True)
      (elu): ELU(alpha=1.0)
      (fc2): Linear(in_features=8, out_features=8, bias=True)
      (gate_norm): GateAddNorm(
        (glu): GatedLinearUnit(
          (dropout): Dropout(p=0.3, inplace=False)
          (fc): Linear(in_features=8, out_features=32, bias=True)
        )
        (add_norm): AddNorm(
          (norm): LayerNorm((16,), eps=1e-05, elementwise_affine=True)
        )
      )
    )
    (relative_time_idx): GatedResidualNetwork(
      (resample_norm): ResampleNorm(
        (resample): TimeDistributedInterpolation()
        (gate): Sigmoid()
        (norm): LayerNorm((16,), eps=1e-05, elementwise_affine=True)
      )
      (fc1): Linear(in_features=8, out_features=8, bias=True)
      (elu): ELU(alpha=1.0)
      (fc2): Linear(in_features=8, out_features=8, bias=True)
      (gate_norm): GateAddNorm(
        (glu): GatedLinearUnit(
          (dropout): Dropout(p=0.3, inplace=False)
          (fc): Linear(in_features=8, out_features=32, bias=True)
        )
        (add_norm): AddNorm(
          (norm): LayerNorm((16,), eps=1e-05, elementwise_affine=True)
        )
      )
    )
  )
  (prescalers): ModuleDict(
    (avg_rice_yield): Linear(in_features=1, out_features=8, bias=True)
    (actuals): Linear(in_features=1, out_features=8, bias=True)
    (relative_time_idx): Linear(in_features=1, out_features=8, bias=True)
  )
  (softmax): Softmax(dim=-1)
)), ('decoder_variable_selection', VariableSelectionNetwork(
  (flattened_grn): GatedResidualNetwork(
    (resample_norm): ResampleNorm(
      (resample): TimeDistributedInterpolation()
      (gate): Sigmoid()
      (norm): LayerNorm((5,), eps=1e-05, elementwise_affine=True)
    )
    (fc1): Linear(in_features=30, out_features=5, bias=True)
    (elu): ELU(alpha=1.0)
    (context): Linear(in_features=16, out_features=5, bias=False)
    (fc2): Linear(in_features=5, out_features=5, bias=True)
    (gate_norm): GateAddNorm(
      (glu): GatedLinearUnit(
        (dropout): Dropout(p=0.3, inplace=False)
        (fc): Linear(in_features=5, out_features=10, bias=True)
      )
      (add_norm): AddNorm(
        (norm): LayerNorm((5,), eps=1e-05, elementwise_affine=True)
      )
    )
  )
  (single_variable_grns): ModuleDict(
    (month): ResampleNorm(
      (resample): TimeDistributedInterpolation()
      (gate): Sigmoid()
      (norm): LayerNorm((16,), eps=1e-05, elementwise_affine=True)
    )
    (gstage): ResampleNorm(
      (resample): TimeDistributedInterpolation()
      (gate): Sigmoid()
      (norm): LayerNorm((16,), eps=1e-05, elementwise_affine=True)
    )
    (avg_rice_yield): GatedResidualNetwork(
      (resample_norm): ResampleNorm(
        (resample): TimeDistributedInterpolation()
        (gate): Sigmoid()
        (norm): LayerNorm((16,), eps=1e-05, elementwise_affine=True)
      )
      (fc1): Linear(in_features=8, out_features=8, bias=True)
      (elu): ELU(alpha=1.0)
      (fc2): Linear(in_features=8, out_features=8, bias=True)
      (gate_norm): GateAddNorm(
        (glu): GatedLinearUnit(
          (dropout): Dropout(p=0.3, inplace=False)
          (fc): Linear(in_features=8, out_features=32, bias=True)
        )
        (add_norm): AddNorm(
          (norm): LayerNorm((16,), eps=1e-05, elementwise_affine=True)
        )
      )
    )
    (actuals): GatedResidualNetwork(
      (resample_norm): ResampleNorm(
        (resample): TimeDistributedInterpolation()
        (gate): Sigmoid()
        (norm): LayerNorm((16,), eps=1e-05, elementwise_affine=True)
      )
      (fc1): Linear(in_features=8, out_features=8, bias=True)
      (elu): ELU(alpha=1.0)
      (fc2): Linear(in_features=8, out_features=8, bias=True)
      (gate_norm): GateAddNorm(
        (glu): GatedLinearUnit(
          (dropout): Dropout(p=0.3, inplace=False)
          (fc): Linear(in_features=8, out_features=32, bias=True)
        )
        (add_norm): AddNorm(
          (norm): LayerNorm((16,), eps=1e-05, elementwise_affine=True)
        )
      )
    )
    (relative_time_idx): GatedResidualNetwork(
      (resample_norm): ResampleNorm(
        (resample): TimeDistributedInterpolation()
        (gate): Sigmoid()
        (norm): LayerNorm((16,), eps=1e-05, elementwise_affine=True)
      )
      (fc1): Linear(in_features=8, out_features=8, bias=True)
      (elu): ELU(alpha=1.0)
      (fc2): Linear(in_features=8, out_features=8, bias=True)
      (gate_norm): GateAddNorm(
        (glu): GatedLinearUnit(
          (dropout): Dropout(p=0.3, inplace=False)
          (fc): Linear(in_features=8, out_features=32, bias=True)
        )
        (add_norm): AddNorm(
          (norm): LayerNorm((16,), eps=1e-05, elementwise_affine=True)
        )
      )
    )
  )
  (prescalers): ModuleDict(
    (avg_rice_yield): Linear(in_features=1, out_features=8, bias=True)
    (actuals): Linear(in_features=1, out_features=8, bias=True)
    (relative_time_idx): Linear(in_features=1, out_features=8, bias=True)
  )
  (softmax): Softmax(dim=-1)
)), ('static_context_variable_selection', GatedResidualNetwork(
  (fc1): Linear(in_features=16, out_features=16, bias=True)
  (elu): ELU(alpha=1.0)
  (fc2): Linear(in_features=16, out_features=16, bias=True)
  (gate_norm): GateAddNorm(
    (glu): GatedLinearUnit(
      (dropout): Dropout(p=0.3, inplace=False)
      (fc): Linear(in_features=16, out_features=32, bias=True)
    )
    (add_norm): AddNorm(
      (norm): LayerNorm((16,), eps=1e-05, elementwise_affine=True)
    )
  )
)), ('static_context_initial_hidden_lstm', GatedResidualNetwork(
  (fc1): Linear(in_features=16, out_features=16, bias=True)
  (elu): ELU(alpha=1.0)
  (fc2): Linear(in_features=16, out_features=16, bias=True)
  (gate_norm): GateAddNorm(
    (glu): GatedLinearUnit(
      (dropout): Dropout(p=0.3, inplace=False)
      (fc): Linear(in_features=16, out_features=32, bias=True)
    )
    (add_norm): AddNorm(
      (norm): LayerNorm((16,), eps=1e-05, elementwise_affine=True)
    )
  )
)), ('static_context_initial_cell_lstm', GatedResidualNetwork(
  (fc1): Linear(in_features=16, out_features=16, bias=True)
  (elu): ELU(alpha=1.0)
  (fc2): Linear(in_features=16, out_features=16, bias=True)
  (gate_norm): GateAddNorm(
    (glu): GatedLinearUnit(
      (dropout): Dropout(p=0.3, inplace=False)
      (fc): Linear(in_features=16, out_features=32, bias=True)
    )
    (add_norm): AddNorm(
      (norm): LayerNorm((16,), eps=1e-05, elementwise_affine=True)
    )
  )
)), ('static_context_enrichment', GatedResidualNetwork(
  (fc1): Linear(in_features=16, out_features=16, bias=True)
  (elu): ELU(alpha=1.0)
  (fc2): Linear(in_features=16, out_features=16, bias=True)
  (gate_norm): GateAddNorm(
    (glu): GatedLinearUnit(
      (dropout): Dropout(p=0.3, inplace=False)
      (fc): Linear(in_features=16, out_features=32, bias=True)
    )
    (add_norm): AddNorm(
      (norm): LayerNorm((16,), eps=1e-05, elementwise_affine=True)
    )
  )
)), ('lstm_encoder', LSTM(16, 16, batch_first=True)), ('lstm_decoder', LSTM(16, 16, batch_first=True)), ('post_lstm_gate_encoder', GatedLinearUnit(
  (dropout): Dropout(p=0.3, inplace=False)
  (fc): Linear(in_features=16, out_features=32, bias=True)
)), ('post_lstm_gate_decoder', GatedLinearUnit(
  (dropout): Dropout(p=0.3, inplace=False)
  (fc): Linear(in_features=16, out_features=32, bias=True)
)), ('post_lstm_add_norm_encoder', AddNorm(
  (norm): LayerNorm((16,), eps=1e-05, elementwise_affine=True)
)), ('post_lstm_add_norm_decoder', AddNorm(
  (norm): LayerNorm((16,), eps=1e-05, elementwise_affine=True)
)), ('static_enrichment', GatedResidualNetwork(
  (fc1): Linear(in_features=16, out_features=16, bias=True)
  (elu): ELU(alpha=1.0)
  (context): Linear(in_features=16, out_features=16, bias=False)
  (fc2): Linear(in_features=16, out_features=16, bias=True)
  (gate_norm): GateAddNorm(
    (glu): GatedLinearUnit(
      (dropout): Dropout(p=0.3, inplace=False)
      (fc): Linear(in_features=16, out_features=32, bias=True)
    )
    (add_norm): AddNorm(
      (norm): LayerNorm((16,), eps=1e-05, elementwise_affine=True)
    )
  )
)), ('multihead_attn', InterpretableMultiHeadAttention(
  (dropout): Dropout(p=0.3, inplace=False)
  (v_layer): Linear(in_features=16, out_features=4, bias=True)
  (q_layers): ModuleList(
    (0-3): 4 x Linear(in_features=16, out_features=4, bias=True)
  )
  (k_layers): ModuleList(
    (0-3): 4 x Linear(in_features=16, out_features=4, bias=True)
  )
  (attention): ScaledDotProductAttention(
    (softmax): Softmax(dim=2)
  )
  (w_h): Linear(in_features=4, out_features=16, bias=False)
)), ('post_attn_gate_norm', GateAddNorm(
  (glu): GatedLinearUnit(
    (dropout): Dropout(p=0.3, inplace=False)
    (fc): Linear(in_features=16, out_features=32, bias=True)
  )
  (add_norm): AddNorm(
    (norm): LayerNorm((16,), eps=1e-05, elementwise_affine=True)
  )
)), ('pos_wise_ff', GatedResidualNetwork(
  (fc1): Linear(in_features=16, out_features=16, bias=True)
  (elu): ELU(alpha=1.0)
  (fc2): Linear(in_features=16, out_features=16, bias=True)
  (gate_norm): GateAddNorm(
    (glu): GatedLinearUnit(
      (dropout): Dropout(p=0.3, inplace=False)
      (fc): Linear(in_features=16, out_features=32, bias=True)
    )
    (add_norm): AddNorm(
      (norm): LayerNorm((16,), eps=1e-05, elementwise_affine=True)
    )
  )
)), ('pre_output_gate_norm', GateAddNorm(
  (glu): GatedLinearUnit(
    (fc): Linear(in_features=16, out_features=32, bias=True)
  )
  (add_norm): AddNorm(
    (norm): LayerNorm((16,), eps=1e-05, elementwise_affine=True)
  )
)), ('output_layer', Linear(in_features=16, out_features=1, bias=True))]), 'prepare_data_per_node': True, 'allow_zero_length_dataloader_with_multiple_devices': False, '_dtype': torch.float32, '_device': device(type='cuda', index=0), '_trainer': <lightning.pytorch.trainer.trainer.Trainer object at 0x7f3a9e42f640>, '_example_input_array': None, '_current_fx_name': 'on_train_epoch_end', '_automatic_optimization': True, '_param_requires_grad_state': {}, '_metric_attributes': None, '_compiler_ctx': None, '_fabric': None, '_fabric_optimizers': [], 'output_transformer': GroupNormalizer(
…
